model/weights.pt (torch_old, 87269 bytes, 12 tensors)

embd1.weight f4 [32, 4, 3]
00000000: 41f3 a8be 50f4 2bbe d677 ab3d ae15 f93d
00000010: d52d c0bd b62a afbe 331f 8e3e 52a7 243d
00000020: 9dc8 b9be c392 a2be b654 89be f67d ab3e
00000030: 2a4d a93e 792a b1be 9bcd 25be ae91 0cbf
00000040: b26c 8e3b 1097 7cbe af72 9abe 0d2a a9be
00000050: a132 b2be be58 b4bb 7fea dc3d a92b bb3e
00000060: 0781 943b e64c 4ebd ddd2 953e f25b 193c
00000070: bce6 9ebe de06 333e bc2a d4be d28d a93e
00000080: c850 9dbe 2cea ccbd a692 99be a3b5 a6be
00000090: 52f7 08bd 1b45 e7bc 3915 e6be 3a6d a23e
000000a0: f04d 743e 242a 5abe fdd8 fb3d e09c 483e
000000b0: 3921 8d3e 0d6f b73d 4c0f f3be 3585 74be
000000c0: 8a36 463e 2993 33be c5f8 cc3b b628 c83e
000000d0: 80df af3e 875b 75be f5ee abbe fb86 eebe
000000e0: 3f12 01bd 3717 dfbe c022 d8bd a0d0 993e
000000f0: 0067 313e c72e a2be eecf cd3d b188 223d
00000100: 724a f43d b598 fe3d 9bfc 87be 389e e3bc
00000110: 0527 0d3e 3acc 4abe a9d7 a7bd 8906 9ebe
00000120: f8df cdbb 95bd 03bd 04bd 5e3e 9ae5 ad3e
00000130: bf3d 9f3c 3252 a13d 2dcb 963e 0159 3bbd
00000140: 247d 8dbe b963 87be b85e 803e 15b3 abbe
00000150: a93b 73be 0a1f 84be 9d5c a6be 7636 de3d
00000160: 1950 623e bef9 cfbd 6794 6ebe 8afa 0dbd
00000170: 17d7 733e b393 01bd 40eb 82bb dcdb 1e3d
00000180: 588a efbd 4317 e0be 02e2 e3be 27b0 aebe
00000190: d849 8d3e 80b6 0abe 2b05 a9be e7e0 183e
000001a0: e132 a83e 2fea 103e 7670 9d3b 75a0 babd
000001b0: 81d6 2cbd fd63 6b3e 9182 e93e 2442 9b3d
000001c0: 7c26 0abf cced 8ebe 89b8 42be 3ce8 533e
000001d0: fbc9 6dbe 34be 5d3e 90e4 b2be 69a5 aabe
000001e0: 35b7 a1be 1f2a 8e3e 07be c73e 77bf bc3c
000001f0: e4bf c8bd 005f 04be 2289 5f3e dd99 7abe
00000200: 1ae5 18bc 75da 95bc 54b2 b9be e228 f8be
00000210: 4440 1dbe 281e 4e3e e475 93be eead 0e3e
00000220: 7a54 a4be cf02 cfba 79eb 2bbe 4722 0ebd
00000230: fd39 6b3e f0b9 58be bcb2 8a3e 1b9e 5bbd
00000240: 96ac a8be 7470 143e 440a b4be 9852 d63e
00000250: 9e37 b6be aeda af3d 9fdd b3be 8bb0 69bc
00000260: 87c9 90be a306 8b3e 0b4d 05bf a2ac 763e
00000270: 82c7 813c 86fb 263e cd50 d9be 305c 54be
00000280: bda8 fcbd c74f bcbe d199 ee3d 131c eebd
00000290: a3ef 2a3e 1456 663e e286 8cbe 8d61 583d
000002a0: a58e ae3d 5da1 88be eca4 16be 1433 b93e
000002b0: 9a0b e9bd ae92 e83e 6bb1 3e3d fd13 a43e
000002c0: 2175 053d 0123 dabe 56fa 0bbd 38f0 8fbe
000002d0: dd21 bbbd 9204 4b3e 141e e0bd 0aad 44be
000002e0: 2ce5 f4be e798 e83e c942 0fbe 6d17 13be
000002f0: 5a88 83be 7e1e ca3e 5922 d1be dde0 a3bd
00000300: 1c6a 3cbe 1bb1 90be f939 3e3e 502a d8be
00000310: fed9 9fbe b34c 11bf 2235 c63e 6718 843e
00000320: 965d b7bd 5f87 48bc 5677 763c a68c 1c3e
00000330: e6be 443e 7abc cc3d 0045 4c3e 47e3 133e
00000340: 3679 4b3e f32f 133e f2a2 9dbe 6a4a f6be
00000350: b166 103e 04c0 29be 0195 2d3e 7e35 f6be
00000360: 48b0 a2be 668a 183e 876b c4be a035 d3be
00000370: c7fa 253e 88d1 52be 4a44 793d 46b5 c8be
00000380: b8d9 613d d38a b33e 094b b93e 61f4 c43e
00000390: 32d0 a43d 04ec d2be 07fe 7d3e 88a3 31be
000003a0: d8cf 3c3c 4479 03bd 8fcb 38be 1fd1 f53d
000003b0: 5aba 98be 25c8 99bc 581d d7be 80cd 493e
000003c0: 3607 3f3c 8435 233e 9a84 be3c cb23 acbe
000003d0: 13d0 713e 47f6 29bd 5775 bcbe 1fd1 0cbe
000003e0: 7272 b5bc 7ef3 923e 8f4d e2bd d0c8 03bd
000003f0: dce9 893e 1945 07be 96c8 48be c03c 79be
-0.32998088 -0.16792417 0.08372466 0.12162338 -0.09383742 -0.34212273 0.27758178 0.04019863
-0.36285868 -0.31752595 -0.26822442 0.33494538 0.33066684 -0.34602717 -0.16191714 -0.5490979
0.0043464536 -0.24667001 -0.30165622 -0.33039895 -0.34804252 -0.005503743 0.10786914 0.36556748
0.004531983 -0.050366305 0.29262438 0.0093603 -0.3103541 0.17483088 -0.41438854 0.33116013
-0.30725694 -0.10005602 -0.29994696 -0.32560453 -0.033438988 -0.028231194 -0.44938067 0.31723958
0.23857856 -0.21305138 0.122972466 0.19591093 0.2756441 0.08956728 -0.47472608 -0.2387894
0.19356743 -0.17536606 0.0062552416 0.3909356 0.34350204 -0.23960696 -0.33580747 -0.46587357
-0.03151154 -0.435724 -0.10553503 0.3004198 0.17324448 -0.31676313 0.10049425 0.03968114
0.11928262 0.1243147 -0.2655991 -0.027785406 0.13784416 -0.19804469 -0.08195431 -0.3086436
-0.0062828027 -0.03216322 0.21751791 0.33964235 0.019438623 0.07877006 0.29451886 -0.045739178
-0.27634537 -0.2644327 0.25072265 -0.33535066 -0.23753227 -0.2580493 -0.32492533 0.10850231
0.22100867 -0.101550564 -0.23298799 -0.03466276 0.23812519 -0.031634998 -0.003995329 0.038783893
-0.11696309 -0.43767747 -0.44508368 -0.3411877 0.275954 -0.1354618 -0.33011755 0.14929543
0.32851318 0.14151834 0.004804666 -0.09112636 -0.042196754 0.22987361 0.45607427 0.07580975
-0.5396497 -0.279158 -0.19015707 0.20694059 -0.2322158 0.21654588 -0.34940004 -0.33329323
-0.31585088 0.2776651 0.39012167 0.023040516 -0.09802225 -0.12926865 0.21829656 -0.24472757
-0.009331966 -0.018292645 -0.36268866 -0.4846869 -0.15356547 0.20128691 -0.2880088 0.13933536
-0.320957 -0.0015793684 -0.16789044 -0.03470066 0.2297134 -0.2116468 0.27089489 -0.053617578
-0.32944173 0.14496022 -0.35164082 0.4185989 -0.35589308 0.08586632 -0.3513002 -0.0142632825
-0.28278753 0.271535 -0.52070683 0.24089292 0.015842203 0.16306886 -0.4244446 -0.20738292
-0.12336872 -0.36779615 0.11650432 -0.116264485 0.16692977 0.22493774 -0.27446657 0.052827407
0.08523301 -0.2668561 -0.1471135 0.36171782 -0.11379166 0.45424408 0.046555918 0.320465
0.032582406 -0.4260483 -0.034174286 -0.2811296 -0.09137318 0.19825962 -0.10943237 -0.19206634
-0.47831094 0.45429155 -0.1399032 -0.14364405 -0.25689965 0.3947639 -0.40846518 -0.08001874
-0.18399853 -0.2826012 0.18576802 -0.42219782 -0.31221002 -0.5675766 0.38712412 0.25799868
-0.08953397 -0.012239306 0.0150431 0.15288028 0.19213447 0.099968866 0.19948196 0.14442168
0.19870457 0.1437376 -0.3078838 -0.48103648 0.14101674 -0.16577154 0.16951372 -0.48087686
-0.31775117 0.14896545 -0.38363287 -0.4125185 0.16208945 -0.20587742 0.06085614 -0.392008
0.055139273 0.35066852 0.3619006 0.38467696 0.080475226 -0.4119569 0.24803935 -0.17347538
0.011524163 -0.03209807 -0.18046401 0.12002777 -0.29829675 -0.018772194 -0.42014575 0.19707298
0.011659434 0.15938383 0.023256589 -0.33621058 0.2361453 -0.041494634 -0.36808273 -0.13751648
-0.022149298 0.28701395 -0.110499494 -0.03217393 0.26936233 -0.13209952 -0.19607767 -0.2433958

embd1.bias f4 [32]
00000000: 58f6 813d a141 593d 6b39 82bd e600 703d
00000010: 39f8 7abe 3d2a 303b c2e3 5cbd 6de3 cdbc
00000020: 9fb2 cebc 9141 72be 3a03 08bd 2287 8bbd
00000030: 8d87 d3bd 8e7b 73bc a6ac 6abd 1656 08bd
00000040: 06b4 c6bb 1696 673d 2c54 a2be f30c 223d
00000050: 9868 743d 762c bb3d 6e61 54bd f537 3a3d
00000060: 0673 20be 2987 8ebe f59b 383d 9c64 c7bb
00000070: 1253 80be 2ac2 c4bc 8590 1bbb 687c 8bbc
0.063458145 0.053041104 -0.06358608 0.058594607 -0.24508752 0.0026880645 -0.053928144 -0.02513286
-0.025231658 -0.23657824 -0.033206202 -0.06812884 -0.10328589 -0.014861001 -0.057293557 -0.033285223
-0.006063941 0.056539617 -0.31704843 0.03956313 0.05967006 0.091393396 -0.05185073 0.04546352
-0.15668878 -0.27837494 0.045070607 -0.0060849916 -0.25063378 -0.024018366 -0.0023737263 -0.017027095

conv2.weight f4 [16, 64, 3]
00000000: 4db8 fe3d da9c 7d3e 8aa7 68be cdc4 3a3d
00000010: f61c 81be 7447 033f 0816 41bc 18f4 37be
00000020: b5ee ebbe 7b3d cdbc 5a4e d0bc 1bdb 29be
00000030: 00f0 a03e fc32 203e 259b 893d 6652 dd3c
00000040: 5c3d 1dbe a004 aabe 63e5 8d3c a2ae b33d
00000050: 1092 573d dcf9 993e 8ae4 f2bc 2802 05be
00000060: 0d63 313c 252e dabc ea58 1cbe 2079 9f3d
00000070: e717 10bf ba23 b5be 8072 a53b 8168 71be
00000080: e35d 70be 52c2 763c 37d9 a43d b0f9 41bd
00000090: 0296 a13e 3e9f ae3e 8c1f ca3d 4363 3bbe
000000a0: 595d fb3d d659 babc 1aab d1bd 61eb 21be
000000b0: 1f9a 3dbc 73fa 943d 6ce1 a63e 50b4 d7bc
000000c0: 3568 f6bd e72a 3dbe fea8 babe f4c8 20be
000000d0: 4e86 46be 6f68 bdbe 0525 403e c95a 353d
000000e0: 7946 263e df6b 633d 93f5 9bbe d310 313d
000000f0: b548 b0bd 3dd9 c93d 70d0 68bd fa4d 9abd
00000100: 299d 81be d91b f8bd 28bf fb3d 5df2 83bd
00000110: 7ce0 333e aa2c 333d b25c c1bd cef7 343d
00000120: 0d24 7abe a404 943e b72c 9d3e c20d 1bbe
00000130: 1f34 1c3e 52dc 93bd 2468 90bd ae3c 4f3d
00000140: 2446 b3be 1032 803d 8226 953e 5de9 2dbe
00000150: 0c1d 763e d0cd 28be 2674 4e3e 72a1 4b3d
00000160: 5973 333e 0baf 193e bf32 893e 40d7 b93d
00000170: 41b7 6a3d 76a4 9b3e 90ae 77be 1bb1 6d3e
00000180: c5cd a63e d756 c8bd 3ef0 6bbe a63e b1be
00000190: 21a1 0dbe 44c4 adbd 09fd 0ebe 177c 7ebe
000001a0: f6ae 8d3e bbf6 3d3e 4ef3 d23d 7c7b d03d
000001b0: dd79 a0bd d709 1b3e 55fa 1a3d 92bd 3b3e
000001c0: 485a 5abc c7e1 c13c 427c 7ebd 22ba 013e
000001d0: e4b4 e4bc 2ef9 2f3e b017 49be 67e7 e83c
000001e0: 901a 67bd f5df b93d 7b4e e33c 9df6 0cbe
000001f0: f7aa 5dbe 3f53 b5bc a68a f73d c4fd aa3d
00000200: 871f 173e 2803 073e a50f af3d 36f7 0cbc
00000210: 78ab bfbd 664a bbbd cc18 2ebe 6f15 bbbd
00000220: 13be 4f3e 42d9 853d c311 973e 8d7e b03d
00000230: 005a 123e ea74 8ebd ef8b e8bd 4ed1 0abd
00000240: 230e 113e aee4 3b3e b1ca 0bbe ac06 0dbd
00000250: 1072 e4bd 07e4 9ebd d467 8b3c 95ce 2bbe
00000260: 4f78 82bd b8c3 96bc a114 59bd 2d4c 293e
00000270: 2ccc bbbd bcfe 82be 7438 78bd 9740 383d
00000280: 87f5 983d 51a2 023e a30a bbbe 5df2 b6bd
00000290: bf8b 66bd c062 de3c ed32 5d3d 888a 99bc
000002a0: efa2 debd 898c df3d fdc3 a13d a601 2dbe
000002b0: ae3a 1bbe d00a a2be 0d19 c83d 6236 a83c
000002c0: f649 983d dad8 af3d 35eb 733d 8da3 b33b
000002d0: 28cc 84bd fcc2 ddbe a893 03bd 3593 23be
000002e0: f735 dabd 9008 3fbe 65df 913c efd3 2dbe
000002f0: fd0d 953d 4d11 54bd 119f 763d 4278 08be
00000300: b62c 903e 4e8e 11bd 6e88 03bd 266d bfbe
00000310: 7179 173e 84f3 d6bd c073 e03d 941f d5bd
00000320: 1825 01bd 2bde f43d 8760 86bc 53db 813e
00000330: a52b b23d 0ba3 53be 122a a43e 1657 a0bc
00000340: 4448 c23d c807 a0bc 29d6 be3e fde2 093e
00000350: 04ce 74bc 0699 ccbc 7c6d 2a3e 4424 67bd
00000360: f740 02be a59d 94bd 2ed2 4f3e 2cef 4abe
00000370: f1a9 e03d b0e3 86be 75b6 043e f59f 8c3e
00000380: c3cc 13be cde4 95be a417 283e 4530 443c
00000390: b1fa 59be 3e4f 0e3e b209 d73e b0c6 b63d
000003a0: d6ed c3bd bdf2 b63d 4216 ce3e 307a 893e
000003b0: c029 b3be e12f 3e3e 2f99 81be b592 c03d
000003c0: 1cb0 f8bc 0614 d8be 0057 53bd 7c24 c3bd
000003d0: 1fc4 893e 4403 60bc a97b 3a3e e9cc ae3e
000003e0: 3b56 e3be 19f1 37be 477f 0a3e 689c 3dbe
000003f0: dcc5 e3be d45e 16bd 39c2 0dbd 966d 74be
0.12437496 0.24766865 -0.22720161 0.04559784 -0.25217408 0.51280904 -0.011785038 -0.17964208
-0.46080557 -0.02505373 -0.025427986 -0.16587488 0.31433105 0.15644449 0.067190446 0.02701683
-0.15355438 -0.33206654 0.017321294 0.08773543 0.05262953 0.3007344 -0.029649992 -0.12989104
0.010826838 -0.026633332 -0.15268293 0.07786775 -0.5628647 -0.3537882 0.00504905 -0.23575021
-0.23473315 0.015060978 0.08049243 -0.04735726 0.3155976 0.34105867 0.09869298 -0.18299584
0.12273664 -0.022747915 -0.10237713 -0.15812446 -0.01157239 0.07274332 0.32593858 -0.026331097
-0.12031595 -0.18473397 -0.36457056 -0.15701658 -0.1938717 -0.3699374 0.18764122 0.044276033
0.1623782 0.055522796 -0.30460796 0.043228935 -0.08607618 0.09855888 -0.056839406 -0.07534404
-0.25315216 -0.121146865 0.122923195 -0.064427115 0.17566103 0.043743767 -0.09441508 0.044181637
-0.24427815 0.2890979 0.30698177 -0.15141967 0.15254258 -0.07219757 -0.07051113 0.050594978
-0.3501445 0.06259549 0.29130942 -0.16983552 0.24034518 -0.16484761 0.20161495 0.049714513
0.1752447 0.1500818 0.2679653 0.09074259 0.05730367 0.3039891 -0.24187684 0.23212092
0.32578865 -0.097821884 -0.23040864 -0.3461811 -0.13830997 -0.084847 -0.13963713 -0.24852024
0.27672547 0.18551151 0.10300313 0.10179803 -0.078357436 0.15140472 0.03783639 0.18334034
-0.013327189 0.02366723 -0.06213022 0.1266866 -0.027918287 0.17184898 -0.19637942 0.028430654
-0.056421816 0.090759195 0.027747383 -0.1376595 -0.21647249 -0.022134421 0.12086992 0.08349183
0.1475812 0.13184798 0.08547906 -0.008603862 -0.09358877 -0.0914505 -0.17001647 -0.091349475
0.20287351 0.06535579 0.2950574 0.08617888 0.14292145 -0.06955893 -0.11354815 -0.033891015
0.14165549 0.18348953 -0.1365154 -0.03443019 -0.11154568 -0.077583365 0.017017283 -0.16778024
-0.06370603 -0.018403873 -0.05299819 0.16532965 -0.09169802 -0.25584972 -0.060600713 0.044983473
0.074687056 0.12757231 -0.36531553 -0.08932946 -0.056285616 0.027146697 0.054003645 -0.018742815
-0.10870921 0.10915477 0.0789871 -0.1689516 -0.15159103 -0.31648874 0.09770403 0.020533744
0.07435982 0.08586283 0.059550483 0.0054821433 -0.06484252 -0.43312824 -0.032123238 -0.15974124
-0.10654824 -0.1865561 0.017806718 -0.16975378 0.07278059 -0.05177431 0.06021029 -0.13327125
0.28159112 -0.035536103 -0.03211253 -0.3738796 0.1479242 -0.10495666 0.109595776 -0.10406414
-0.031529516 0.11956438 -0.01640345 0.25362644 0.08699731 -0.20667665 0.32063347 -0.019572776
0.0948644 -0.01953496 0.37272766 0.13465495 -0.014941696 -0.024975311 0.16643327 -0.05643107
-0.12720095 -0.07256631 0.20295021 -0.198178 0.10969914 -0.26345587 0.12960227 0.27465788
-0.14433579 -0.29276124 0.16415268 0.011974399 -0.21287037 0.13897416 0.41999584 0.089246154
-0.09566848 0.089330174 0.40251356 0.26851034 -0.3499279 0.18572952 -0.25312182 0.09402982
-0.030357413 -0.42202777 -0.05159664 -0.09528443 0.2690744 -0.013672654 0.18211235 0.3414071
-0.44401726 -0.17963065 0.13525115 -0.18516695 -0.44486892 -0.03671153 -0.034609053 -0.23869929

conv2.bias f4 [16]
00000000: c99d ebbd 0242 57bd eb6f 9ebd 55f8 9f3c
00000010: bfa8 593d 00af c1bb 0030 623c 9920 63bd
00000020: 6f7f 893d 80a6 423d 07d6 83bb 0341 b3bd
00000030: c429 34bd 1941 883d 1ccd 94bd 50db 9a3d
-0.115047045 -0.052553184 -0.077361904 0.019527594 0.053139444 -0.005910754 0.013805389 -0.05545101
0.06713759 0.047522068 -0.004023317 -0.087526344 -0.043985143 0.066530414 -0.07265684 0.07561362

conv3.weight f4 [64, 16, 3]
00000000: 95d5 5bbe 041f ae3e 2eb4 f03c 182e b4bd
00000010: 2faf ffbe 38b5 91be cffe 81be de20 e7be
00000020: cfd6 e93d 2eac 5fbd 52cc 973e fbce d93d
00000030: 0f8f 4e3d 9938 e2bc 6494 3b3e 540d e9be
00000040: 6973 3abe f958 103e f7fa debe 55c4 8fbe
00000050: 7725 80be 43d4 b03e 8766 98be b432 89be
00000060: 0ce6 613d 2a94 fb3d d9a5 60bd 4ae5 a63c
00000070: 4d30 d53d 24ac d2be a4ef 883e 4e77 af3c
00000080: 6c51 49be b475 3f3d 0027 68bd 23f4 943c
00000090: 9ad6 d4be 4f14 4c3e 8466 873e b943 8cbe
000000a0: 44e2 1ebf 8cc6 1abe d8de 4dbe f0ed 543a
000000b0: 1e70 e63e fa15 8cbc 219f 10bf d057 2fbd
000000c0: d43a 95bc f796 2abd c7bf 303e 6efd 353d
000000d0: 42d9 083d bf68 0f3c 5cf5 e73c ed50 1a3e
000000e0: a108 d13c 1aaf 85bd 42ed 6cbd 59b9 573e
000000f0: 5eeb 023e 10f7 883b 9783 b9bb 9279 f9bd
00000100: 3c4e dabd ed44 a9be 5a0d d23d 1b51 2ebb
00000110: d70e 92be 2aec b1be 5bd4 14be 67ee a1bd
00000120: 3c74 99bb c050 a13b abe4 84be 3265 203e
00000130: 6e66 3ebe 0b4a 44be 815c f5bd f032 e2bd
00000140: acfa 013e 3993 cbbd 213c f93d e0cf e13d
00000150: e140 8f3e 88b0 37bd ba03 0a3e 8337 883e
00000160: bd13 113e e467 9dbd a0d1 1a3c f282 f2bd
00000170: 6fbe 0a3d b725 c8bc fb5f 103e d427 9abc
00000180: 4913 89be c8f1 61be a299 bd3d f4e2 cf3c
00000190: 603e 09be f19d 57be 8437 b2be b27c a93a
000001a0: 5180 443e b792 933d 28b4 38be dd80 5dbd
000001b0: 7331 913e 7371 a5bc 38cf 143c 1aff 53be
000001c0: d835 a83d f14a b5be 123a 12bd ab10 ffbe
000001d0: b5fc 76be d232 1dbe b09e a83c 1f34 ae3e
000001e0: d5c2 3c3e bd17 96be 618d babe 5998 633d
000001f0: 4890 9dbe 3431 2bbe 1e60 983c 1665 853e
00000200: 3f7f 5f3b 8208 be3c 353a b83d dc57 0abe
00000210: 6cc2 acbd cf83 373b 82d5 183d 8744 34be
00000220: b58b 363d cd7f 9cbc 968c 233d 47e9 87be
00000230: 40e0 8f3d f935 0c3e 1367 5cbe 7e4e 0b3e
00000240: d062 973e 69da 98be 46ee 293d 4443 63be
00000250: 32af 00bd 4360 89bc eb60 2ebc 6d94 53be
00000260: dfd3 c53d 83fd 8bbe 756b fdbd 9759 aebd
00000270: 94ee b83c dc1e 14be 0579 823d e9a4 69bd
00000280: d8a2 dfbc 7961 833d aa17 2ebe ca85 7dbd
00000290: 0902 9bbc 57f4 08bd 7b57 79bc 7204 f33d
000002a0: 8524 11be 6d15 003e cac3 25be 1e77 e93d
000002b0: 7792 093e 11d0 84bd d1cd 03bd efc5 443d
000002c0: 0393 563e e006 483d ca3b 493d 469c 663d
000002d0: 3222 f5bd ab67 45be 3b0d b13e dc13 a4be
000002e0: 0fb1 9abd 668d 20be 5a45 473e adc3 03be
000002f0: ddd5 ddbe 3e3c 293b 0f28 09bf ef85 bf3e
00000300: 3dde 0a3e d02a a4be 8f7f ad3d d3a6 c1be
00000310: 1ab3 1b3e c600 aabd ddf2 8ebe 1658 e03d
00000320: 3adc 263e 8971 bbbc 5413 d63c 1934 083d
00000330: 6e62 13be 1ad1 523d bed4 443e 9bf4 70be
00000340: 9667 ee3c ddc4 c9bd 465b 88be a950 aebd
00000350: 7ad8 6ebe 5b90 24be a17b 76bc 75a8 b43d
00000360: 103c 353e 6ff0 6d3e 37c2 30be 06b1 093e
00000370: 88bc 18bd bd4f 85be 8e27 90bd e8f6 3ebd
00000380: 85b2 bc3d 060b da3c d00d 3bbd e4fb c53d
00000390: e65a dfbe 9b54 dabd d001 413c cfb1 2dbd
000003a0: 652f 063e 3ac2 97be e108 f7bc a3d1 d23c
000003b0: b14f 54bd faf7 263d 2783 81be 0641 84bd
000003c0: 236e b93d 7c33 ebba c86f 36be d1a1 68be
000003d0: b00e 873e e7c2 39bd a54d 31be 6d38 9fbd
000003e0: a3e4 53be f3ad 5dbe ad7c cdbd 2800 56be
000003f0: 4a0d 5cbe 53c3 193e 0c3b f1ba d60e e5bd
-0.21468194 0.34008038 0.029382791 -0.08797854 -0.49938342 -0.2845857 -0.25389716 -0.45142263
0.114179246 -0.054607563 0.29648072 0.106351815 0.0504294 -0.027614878 0.18318325 -0.4551798
-0.18208088 0.1409644 -0.43550846 -0.28079477 -0.25028583 0.34536943 -0.29765722 -0.26796496
0.05515103 0.122841194 -0.054845665 0.020373005 0.10409603 -0.41146958 0.2674533 0.021419194
-0.19659966 0.04674311 -0.05667782 0.01818282 -0.41569978 0.19929622 0.264454 -0.27395418
-0.62064004 -0.15114802 -0.2010454 0.00081226137 0.45007414 -0.017100323 -0.5649281 -0.042808354
-0.018216528 -0.041647878 0.17260657 0.044431143 0.03341032 0.008753001 0.028315239 0.15069933
0.02551681 -0.065275386 -0.057843454 0.21066798 0.12785098 0.004179843 -0.0056614387 -0.12181391
-0.10659453 -0.330604 0.10256453 -0.0026598636 -0.28526947 -0.3475049 -0.14534132 -0.079068
-0.0046830457 0.004922956 -0.2595571 0.15663603 -0.18593761 -0.1916887 -0.11980534 -0.11044872
0.1269328 -0.0994019 0.12169672 0.11025977 0.27979186 -0.044846088 0.13477984 0.26604852
0.14167686 -0.07685831 0.009449393 -0.11841382 0.033873018 -0.024432046 0.14099114 -0.01881782
-0.26772526 -0.22064888 0.09257819 0.025376774 -0.134027 -0.21056344 -0.3480798 0.0012930839
0.19189574 0.07205718 -0.18037474 -0.05407797 0.2835804 -0.020195698 0.009082608 -0.20702782
0.08213395 -0.35408738 -0.03569991 -0.49817404 -0.24119838 -0.15351418 0.02058348 0.3402414
0.18433698 -0.29314986 -0.3643599 0.055565212 -0.3077414 -0.16717988 0.01860052 0.26053685
0.0034102944 0.023197416 0.08995477 -0.13510078 -0.084355205 0.0028002148 0.037312992 -0.17604266
0.04456683 -0.019103909 0.039928995 -0.26545164 0.07025194 0.13692464 -0.21523695 0.13604161
0.29567575 -0.29854134 0.041487 -0.22193629 -0.03141708 -0.016769534 -0.010643224 -0.20662089
0.09659552 -0.27341852 -0.123740114 -0.08513182 0.0225747 -0.14464897 0.06370739 -0.057042036
-0.02729933 0.06415076 -0.17001215 -0.06189517 -0.018921869 -0.033436146 -0.015218611 0.11866082
-0.14174087 0.12508173 -0.16187969 0.11399673 0.13434778 -0.06484998 -0.032178704 0.048040327
0.20954518 0.04883468 0.049129285 0.056301378 -0.11969413 -0.19277827 0.34580407 -0.32046402
-0.075533025 -0.15678939 0.1946005 -0.12867613 -0.43327227 0.002582326 -0.5357675 0.3740687
0.1356134 -0.32063913 0.084715955 -0.3782259 0.1520504 -0.08300929 -0.27919665 0.10954301
0.16294947 -0.022881286 0.026132263 0.03325281 -0.14393017 0.051468946 0.1922178 -0.2353081
0.029102128 -0.09852002 -0.26632136 -0.085114785 -0.23324767 -0.16070692 -0.015044124 0.08821193
0.17698693 0.2323625 -0.17261587 0.13446435 -0.037289172 -0.26037398 -0.070387945 -0.046622187
0.092137374 0.026616585 -0.04566747 0.09667185 -0.43624038 -0.106606685 0.011780217 -0.0424059
0.13104017 -0.2964037 -0.030155601 0.025734728 -0.051833812 0.040763833 -0.25295374 -0.06457715
0.0905421 -0.0017944421 -0.17816079 -0.22717978 0.26378393 -0.04535189 -0.17314775 -0.07774434
-0.20692687 -0.21648388 -0.10033546 -0.20898497 -0.21489444 0.15015917 -0.0018404438 -0.1118447

conv3.bias f4 [64]
00000000: 38c5 1e3d a0d9 f6bc c1fd 7a3c 79d0 72bc
00000010: 4dee 023e f68e 4d3d 0004 a2bb 2d4d b3bd
00000020: df88 febd 9632 2cbe 64fe 0cbe 4188 9dbe
00000030: e5de dbbd 7ab2 b9bc d8b2 323e 62ea 0b3c
00000040: b984 e03d ec4c 073b b5f7 d2bd 7c06 003c
00000050: fcaa 6abb ad81 8a3c 8db4 3fbe 375f 00bd
00000060: cf81 39be 6564 37be 5199 45be 0ad4 0ebe
00000070: d7da 013e 3e5f d83c bf6b b3bd b446 dabc
00000080: 8ba1 133e 2981 1f3e eef1 133d 87aa ff3d
00000090: d1c1 28be 2a85 9d38 63d2 eabc 942c 11bd
000000a0: 17cd 823e d271 57bd 5e75 0cbb 8469 cdbd
000000b0: aa52 5ebe dd80 c63c b895 6ebd 67da e4bc
000000c0: 1ff2 d23d 91e7 553d e246 2d3d f609 8d3c
000000d0: 7bdc c93b 5cee 063d ab78 8abe b5bb 1a3d
000000e0: 67a0 25be bff3 09be 27b4 cc3d a487 41be
000000f0: 2576 ed3d b279 1bbe dfd4 6dbe 8e79 dfbd
0.0387623 -0.030133069 0.015319289 -0.014820212 0.12786217 0.050185166 -0.0049443245 -0.087549545
-0.1242845 -0.16816172 -0.13768917 -0.30768016 -0.10735873 -0.022668112 0.17451036 0.008539768
0.10962815 0.0020645214 -0.103011526 0.007814046 -0.003580748 0.016907537 -0.18721218 -0.031340804
-0.18115924 -0.17909391 -0.19296767 -0.13948074 0.12681137 0.026412603 -0.08760785 -0.026645042
0.14417093 0.15576614 0.036119394 0.124836974 -0.16480185 7.511147e-05 -0.028664773 -0.035442904
0.25547096 -0.052598782 -0.002143226 -0.10029891 -0.21711221 0.024231369 -0.05824825 -0.027936174
0.10300087 0.052222792 0.042303927 0.017216664 0.0061603165 0.03294216 -0.27045187 0.037776668
-0.1617447 -0.13471888 0.09995299 -0.18899399 0.115948 -0.15183142 -0.23225735 -0.109118566

conv4.weight f4 [16, 64, 3]
00000000: 29fc 133f 0387 c13e 7d76 21be ad35 7a3d
00000010: 5b17 94bd b65b 3cbd b958 cdbc 4a4e f43d
00000020: 7209 dabd 3fcf 3c3e 23cb 27be cbcf 033e
00000030: 3d29 94be 9f02 393d 1102 333e 5985 193d
00000040: 3ee8 86bd f2fc 0f3e 2d46 d1bd 3632 063d
00000050: 1500 853d 825d 8abe a762 d9bd d6b7 8abd
00000060: 17ac 41be 7506 0fbd a281 97bd f97e af3c
00000070: 475b 56be 19e3 a6bd c26c 07be 61dd cf3c
00000080: c702 dbbd 9168 b83d 0275 1c3d 2981 6cbe
00000090: d77e a9bd c220 02be b8b8 93be ffe1 483e
000000a0: 2402 cdbe b1bd e1bd db01 423e 5292 c53d
000000b0: a2b6 dfbe 60b8 853d 9ed7 8e3d f256 4cbe
000000c0: 7279 d5be be7b f43d fd88 c2bd 23d7 233d
000000d0: 604e 83be 30ad 6e3e 59d1 f439 2899 92be
000000e0: 3ef7 533d be63 b2bd 35e9 ed3d be34 cabd
000000f0: 2a08 063f 2b45 403e 1871 f7be 44b2 5e3e
00000100: 5eb7 963d 1436 e43d fe07 2c3d 1dfe 8dbc
00000110: be06 033e ffbf eebd e221 28be 58b2 133e
00000120: 7885 ef3d b67b 863c 83e3 cc3c 103a 043e
00000130: 047a ec3c bba8 3f3d 1852 97bd eb6e ce3a
00000140: 4e00 473d 5bb1 0cbe 8521 073d 80f6 94be
00000150: abfe d33d a6c5 073e 96b0 c9be fc28 5cbd
00000160: 040b 873e 6932 c2bc 0d2c b93e bf1c b63d
00000170: b644 5ebd 4c53 323c 98d0 d53c f2ea a33b
00000180: 8017 f83c 53a6 f5bd a1da 8b3e 6bdc 9c3d
00000190: 58d0 013e 018b 043e 7514 70bd b39d 2abc
000001a0: df72 ab3d c0fa 7d3c 8654 efbc 8bca a53c
000001b0: f16d e9bc 2ab1 953d 7030 76bc c588 19be
000001c0: 2e78 07bf 0670 2ebb b433 38be 3367 493e
000001d0: 9ba2 d0bc 520e 703e 3572 0a3e 99cf 93be
000001e0: 41f8 e53d 7d8b fa3b 5256 553e dc74 bdbe
000001f0: 78ee 76bd d4e4 b93d 8ff6 f7bc 6275 643d
00000200: dc8d 653d 8f80 e33d 0612 76bd 00d0 95bd
00000210: 912d 483a b4b5 8dbd d263 733d dd66 7e3e
00000220: 0ad3 88be e079 33bd 497e 8ebe 2878 0ebe
00000230: 2fa0 8fbe 439b bfbd cfd0 0c3c f10a b6bc
00000240: 8847 a4be b4b1 493e 88c1 18bf 1226 793d
00000250: c4a2 f03c 0648 6b3d 5441 a43d 390d 21be
00000260: d583 43be 31d1 59bd b4ca 073e f80d 443e
00000270: 3f0d 6e3e 1b75 813d 7e1d b5bd b53c 5a3d
00000280: e41a 34be 6349 b9bd d15e c7be 521f 7d3d
00000290: 84ca b1bc 9f43 0cbe 67ff 023e 6dc2 cabc
000002a0: d3cb 4cbc 68a7 10bd f816 c93b dba3 73bd
000002b0: 529b bfbd 2e23 aebd 54f5 1a3d 1956 d83c
000002c0: 7818 4f3d 872b d93d a48c a5bd fcee c1bc
000002d0: a609 553d 43c4 9d3d 1a31 493e f4e9 6c3d
000002e0: 2883 0f3d 730e 20bd a374 02bc 5923 8fbd
000002f0: 4f7a 62be 2d57 003f 46df ac3d 0524 6ebe
00000300: 5c11 0f3f 4640 c2be a5bf 2b3e 8314 95bd
00000310: 0b9c ef3a 7282 6c3e 453e 313e 0d4c 83be
00000320: 7b15 233d b6b9 103d d207 16bc 83cd 943c
00000330: d1cb c1bc 623f 7538 49ec af3b 5d91 23bd
00000340: 7dc1 8a3d 8ed0 583d 18e2 e0bb fe17 1a3e
00000350: 0f4a 8f3e 59cd 8cbd 3718 b93d cd01 273e
00000360: 1962 bc3b 9dc6 063e b306 103e 32f9 233e
00000370: 2219 06be 46f9 633e 47f4 413e dfe3 d6bd
00000380: 280d da3d 236d 92be 6805 ac3c 9e82 84bd
00000390: 081a 583d f00f 38be e657 27be fee0 2f3e
000003a0: 7de3 16bf 4d64 37be 2687 183e 5be2 66bd
000003b0: be21 a7bd 3e3d 1d3e 1678 c1bb cf1f 01be
000003c0: c5be a6bd e98f ae3d 59c1 96be 04c9 a7bd
000003d0: 3c52 5b3e a8c2 bd3b 691d 513e 60a9 c1bd
000003e0: 9aab c2bb 4d07 67bd b075 80bd 3121 163d
000003f0: c690 b73d 2b59 1dbe 82b6 52be be2e af3d
0.5780664 0.37798318 -0.15767856 0.061086345 -0.07231017 -0.0459859 -0.02506672 0.11928995
-0.10646333 0.18438433 -0.16386084 0.12872235 -0.28937712 0.045168515 0.17481257 0.037480686
-0.065872654 0.14061335 -0.10218463 0.03276273 0.06494156 -0.27024466 -0.106145196 -0.06773345
-0.18913303 -0.034918267 -0.07397772 0.02142285 -0.20933257 -0.08148784 -0.13225082 0.025374116
-0.10693889 0.090043195 0.038197525 -0.23096146 -0.08276146 -0.12707809 -0.28851867 0.1961746
-0.40040696 -0.11022509 0.1894602 0.09647049 -0.43694025 0.06529307 0.069747195 -0.19955042
-0.41694218 0.119376644 -0.09498785 0.040000092 -0.25645733 0.23308253 0.00046695283 -0.28632474
0.05174946 -0.087104306 0.11616746 -0.09873341 0.5235621 0.18776385 -0.4832847 0.2174769
0.07359193 0.11143127 0.04199981 -0.017333085 0.1279554 -0.11657714 -0.16419175 0.14423501
0.11695379 0.016416412 0.02501083 0.12912774 0.028866775 0.046791773 -0.07388705 0.0015749609
0.048584275 -0.1373953 0.03299095 -0.29094315 0.103513084 0.1325899 -0.39392537 -0.053750023
0.26375592 -0.023705678 0.3616642 0.08892202 -0.054264747 0.010884117 0.026100442 0.005002373
0.030284643 -0.119946145 0.27315238 0.07659229 0.12677133 0.12943651 -0.05861326 -0.010413575
0.08371519 0.015501678 -0.029215109 0.020238182 -0.028494807 0.07309182 -0.015026197 -0.1499358
-0.52917755 -0.0026617064 -0.17988473 0.19668274 -0.025468161 0.23442963 0.13520129 -0.28869322
0.11228991 0.007646023 0.2083371 -0.3700322 -0.060286015 0.090768486 -0.030268935 0.055776007
0.05604349 0.11108505 -0.060075782 -0.073150635 0.00076361845 -0.06919423 0.059421368 0.24843927
-0.2672351 -0.0438174 -0.27830723 -0.13913023 -0.28051898 -0.09355786 0.008594706 -0.022222014
-0.32085824 0.19696695 -0.59670305 0.060827322 0.029374488 0.057441734 0.08020273 -0.157277
-0.19093259 -0.053178016 0.13260919 0.19145954 0.2324724 0.06321164 -0.08843516 0.05328055
-0.17588383 -0.090472005 -0.38939527 0.061797448 -0.021703012 -0.1369767 0.12792741 -0.024750913
-0.012499767 -0.0353159 0.0061367713 -0.059482437 -0.09355797 -0.08502804 0.03783162 0.026408242
0.050560445 0.10604005 -0.08083466 -0.023673527 0.052011155 0.077034496 0.19647637 0.057840303
0.03503719 -0.03907628 -0.007962379 -0.06989164 -0.2211697 0.5013302 0.084410235 -0.23255928
0.55885863 -0.37939662 0.16772325 -0.07279303 0.0018280757 0.23096636 0.1730891 -0.2564396
0.039815407 0.035333358 -0.009157138 0.018164402 -0.023656758 5.847158e-05 0.0053687436 -0.03993355
0.06775186 0.05293327 -0.00686289 0.15048215 0.2798619 -0.068751045 0.09037822 0.1630928
0.005748999 0.13161702 0.14065056 0.16013029 -0.13095525 0.22263059 0.1894084 -0.10492682
0.106470406 -0.2859889 0.020998672 -0.06470226 0.0527592 -0.1797483 -0.16342124 0.17175671
-0.5894087 -0.17909355 0.14895305 -0.056368213 -0.08160733 0.15355393 -0.005904208 -0.1260979
-0.08141855 0.085235424 -0.29444388 -0.081926376 0.21418089 0.005791027 0.20421375 -0.09456134
-0.0059408667 -0.056403447 -0.06272447 0.036652748 0.0896316 -0.15366046 -0.20577434 0.08553837

conv4.bias f4 [16]
00000000: 9dae f93d a486 86bc 885a 313e 4803 c1bd
00000010: f50b 58bd cd5e 21bd dc84 633d abac 0bbe
00000020: c9a5 113a 9368 e3bd a983 c33d 7f4d ccbd
00000030: a66e cebd 3b31 d33d deac a7bd 7142 9ebd
0.12191508 -0.016421624 0.17319691 -0.09424454 -0.052745778 -0.03939705 0.055546626 -0.13640086
0.0005556015 -0.1110393 0.095465966 -0.09975719 -0.10079698 0.10312124 -0.08187269 -0.077275164

fc1.weight f4 [30, 384]
00000000: 8738 d63d bfa1 af3c 9c12 923e 889d 86be
00000010: 10d3 5abd 2763 9c3d 3497 fd3c a495 053d
00000020: 691d 563d 4bed c7bc dc32 55bd eb59 39ba
00000030: fc46 6dbd 58c6 073e f007 18be 6b43 09bf
00000040: 23bf a73d 278f cdbd 07dc acbb abd4 79bd
00000050: 0eb1 803c 429c 09bc 41fa fabc 0991 bb3e
00000060: 4c8b f23d e2e3 0b3e e1fd 9e3e 0763 f53c
00000070: 61c1 c93d febe 923d 5d5c c43d 2b62 0a3c
00000080: acbc 363e e3fd 39be e64d b9bd e08b 94bd
00000090: 031d 8ebd f806 bbbd e681 6b3d 243e 9bbe
000000a0: cf02 43bc 4ef7 63bc 263b ee3d 218e 21be
000000b0: 5d76 d8bd ad1c 253d 64f0 71bc f2c4 8f3d
000000c0: dadb 8fbd e189 90bd 562b 503d 1acb 753e
000000d0: 8454 0e3c f4e7 8a3d 4642 8539 24ca c13d
000000e0: 41a6 b93d 714b f13d 0a2d bb3c f81e 4cbd
000000f0: 1631 19be 1042 9dbd 14ed 7c3d 5cb8 423e
00000100: 93c2 82bd 3e51 0bbe 67a9 2fbe 380f 30be
00000110: eea2 4abd c042 18be 6183 85bd d28f cbbe
00000120: 782d 89bb fef4 ccbc 9eaf 82bc 5cf4 31bc
00000130: e09b 963c b0d4 163d 7870 4e3c d4fe eb3c
00000140: a021 7e3b 7e28 a3bd 26cb 1e3d 2b34 48bd
00000150: c299 26bd 783d d2bb 668e 5fbd 4234 ffbc
00000160: 6c2e 06bd 8bd7 34bd a6b9 9bbc 782e b43c
00000170: c0a6 7fbc 4c4e 403d c90f 4ebd 5c28 1bbc
00000180: 1e2e 643e 0f32 0e3e 015f e03c 9f0f a43d
00000190: bc22 7cbd 3272 463e a314 ee3d 2e23 8e3d
000001a0: 131d 11be d6e9 82bc fc9e aabd f87b 183d
000001b0: c242 873d 0e23 833e ea54 22be c9ac 043e
000001c0: 662f b9b8 e741 77be dd21 afbd 6b6e 0abe
000001d0: 38b8 b83c e24d dbbc 6abb 99be 9b28 953e
000001e0: 6af4 653d 785e 9abd 346c ffbe 6dd3 353c
000001f0: 6713 db3e c61b 143e d161 0b3d ffad f3bc
00000200: 6d3b 14be 8aaa 613d 2335 c3bb 4647 8f3e
00000210: bd13 9f3c 757b 863e 37dc 403e 91aa 85bd
00000220: 01f8 0e3e f62b 93bd e746 b0bd 6007 823c
00000230: c805 c73d 38a0 523e 5963 8ebe 1804 4dbe
00000240: 4c0c 19be b628 26bd 02a1 d23d b1bf aabd
00000250: 6e15 5bbe e14a 773e a790 5d3d 2409 c6bd
00000260: ab44 5e3e 4fb4 433d 9493 1f3c 53da 063e
00000270: 2a40 983e 8e85 e63d 7a6f d43c b273 983d
00000280: 32bc 0c3d 8355 9a3d f24d eabc 140f b3bd
00000290: b1a1 95be 9e8b 2ebe fa3d abbd 20f1 ef3c
000002a0: 9f63 3abb 40b6 5cbb 4c32 34bd 5035 44bd
000002b0: eeb5 0fbd 910e 8d3c 276a d0bb 782e 32bd
000002c0: ee74 253d d221 51bc 68d2 b13b 8c8c 1cbd
000002d0: bae4 e1ba 07d5 91bc b1b4 8cbc 3634 083d
000002e0: da31 56bc f402 293d 3857 793c fc56 1e3d
000002f0: c461 f63c 9c55 a13b 00df 17bd 00fd 4abb
00000300: 7b89 203e 275e 013e 27df b6bd 6102 483d
00000310: 2d70 e0bc 9a9e a1be 7261 c63c e82b 49be
00000320: 8f72 1fbe f0f1 2d3d 8a25 ad3d 8793 f43d
00000330: 66e0 103e a914 8b3b cfb6 a5bd 5ec5 7b3c
00000340: 706d 333e 268f e2bc 08c8 3abc 4f0b b93d
00000350: 9d83 a33d 6e37 6b3d bbfb 493c 6a9f 413e
00000360: 64b9 8ebc 2fdf f63b 9497 33bd bc60 1f3d
00000370: 94b4 8f3c 001d 953b 1cfc 47bd c0af 92bc
00000380: 8cc3 dbbc a012 7e3b 9882 9d3c 44e4 8b3c
00000390: ab08 78bc 093d 44bc 5997 b6bc 9a1a 5fbc
000003a0: 0b8e f3bc 002a 47bc 4733 933c 24ba f9bc
000003b0: c4a9 9f3c c026 c2bc efdf cfbc 1888 bf3c
000003c0: 07c3 023e f498 42be 8500 2bbe d9f0 06be
000003d0: 6610 86be ec15 103e 59c4 b8bc 48bb c83c
000003e0: d058 c3bd 640f 033e 9db8 d0bd 2e02 113e
000003f0: 58de 0f3e 0cb2 903e 198f 373e 5f96 fa3c
0.104600005 0.021439431 0.28529823 -0.26292062 -0.05342394 0.07636099 0.030955888 0.03261341
0.05227414 -0.024405142 -0.052050456 -0.0007070589 -0.057929024 0.13259256 -0.14846778 -0.53618497
0.08190753 -0.1003707 -0.0052752527 -0.06099383 0.015709426 -0.008399071 -0.030636908 0.3663409
0.11842975 0.13661149 0.3105307 0.029954446 0.09851337 0.07165335 0.095879294 0.008446257
0.1784541 -0.18163256 -0.09048061 -0.072532415 -0.06939127 -0.091321886 0.057496928 -0.30320847
-0.011902525 -0.0139139425 0.116323754 -0.15776874 -0.10569451 0.04031055 -0.014766786 0.07019986
-0.07024355 -0.07057548 0.05082258 0.24003258 0.008687142 0.06782523 0.00025417114 0.094623834
0.090649135 0.117819674 0.022848625 -0.04983422 -0.14960131 -0.07678616 0.061749533 0.1901564
-0.06384768 -0.1360521 -0.17154466 -0.17193305 -0.049471788 -0.14869213 -0.06519199 -0.39758164
-0.0041863285 -0.025019165 -0.015952881 -0.0108614825 0.018384874 0.03682393 0.012600057 0.028808035
0.0038777366 -0.07966708 0.038767956 -0.048877876 -0.04067398 -0.006416019 -0.05457916 -0.031152848
-0.032759115 -0.04415087 -0.019009423 0.021994814 -0.015603721 0.04694967 -0.050308023 -0.009470072
0.22283217 0.13886283 0.027389051 0.08010792 -0.061556563 0.193795 0.1162503 0.06940304
-0.14171247 -0.015980642 -0.08331105 0.0372276 0.0660453 0.25612682 -0.15852705 0.12956537
-8.830316e-05 -0.24146233 -0.08551381 -0.13518684 0.02254878 -0.026770536 -0.30025798 0.29132542
0.056141295 -0.0753755 -0.4988724 0.011097771 0.4278824 0.1446372 0.034028832 -0.029746054
-0.14475794 0.05509428 -0.005957262 0.27984065 0.019418592 0.26266065 0.18834005 -0.065266736
0.13961793 -0.07186119 -0.086072735 0.015872657 0.097178996 0.20568931 -0.2781017 -0.20021093
-0.14946097 -0.04056617 0.10284616 -0.083373435 -0.21394894 0.24149658 0.05409303 -0.09669712
0.21705882 0.047779378 0.009739775 0.13169222 0.29736453 0.11255942 0.025932062 0.07443942
0.034359165 0.07535841 -0.02860162 -0.0874311 -0.29224923 -0.17045447 -0.083614305 0.029289782
-0.0028440726 -0.0033677965 -0.04399328 -0.047902405 -0.03508561 0.01721886 -0.0063603106 -0.043501347
0.040394716 -0.012764411 0.0054266937 -0.038219973 -0.0017234304 -0.017801775 -0.017176004 0.033252917
-0.013073409 0.041262582 0.0152185485 0.038657174 0.030075915 0.0049235355 -0.037077904 -0.0030973554
0.15677445 0.12633573 -0.08929282 0.048830394 -0.02739724 -0.31566316 0.024216387 -0.19645655
-0.15571044 0.042467058 0.08454426 0.11942201 0.14148101 0.0042444062 -0.080915086 0.01536688
0.17522216 -0.02765615 -0.01140023 0.0903536 0.079840876 0.05742591 0.012328084 0.18908468
-0.017422386 0.00753393 -0.043845728 0.038910612 0.017542161 0.004550576 -0.048824415 -0.01790607
-0.026826642 0.0038768426 0.019227311 0.017076619 -0.015138785 -0.011977443 -0.022288965 -0.013617182
-0.029730817 -0.01215601 0.017968787 -0.030484267 0.01949013 -0.023700118 -0.025375335 0.023380324
0.1276971 -0.1900366 -0.16699417 -0.13177814 -0.26184386 0.14070863 -0.022554563 0.024503365
-0.09538424 0.1279884 -0.10191462 0.14160988 0.14049661 0.2826084 0.17925681 0.03058928

fc1.bias f4 [30]
00000000: cdbc 203d 83e1 07bd 47ac f7bc 54cd 5fbc
00000010: 3b1f 64bc ce0f a73c 8f4d 0fbd 657d 023d
00000020: 0ddb 333d bdfc 1f3d 2902 26bd 58d9 123b
00000030: fb95 903b d579 ae3c 66aa d33c f7a2 4abc
00000040: ffbe 953c 56b5 57ba 58a4 c93c 3d17 6d3d
00000050: 81e2 c03c d7dc 86bc cc94 af3c 6295 873c
00000060: dfb2 05ba d4c4 66b9 19f3 7b3c 17c9 8ebc
00000070: e1c5 293c 687c 8cbc
0.039242554 -0.03317405 -0.030233515 -0.013659794 -0.013923462 0.020393278 -0.034986075 0.031857867
0.043910075 0.03905939 -0.040529404 0.002240738 0.0044124103 0.021298328 0.025838088 -0.012367955
0.01827955 -0.000822862 0.024614498 0.05788349 0.023545505 -0.016462727 0.021433257 0.016550723
-0.0005100201 -0.00022007833 0.015377783 -0.017429871 0.010362119 -0.017149165

fc2.weight f4 [2, 30]
00000000: 7b77 0fbe dd9a 123d 3dc4 123e 0a23 d43d
00000010: 3531 d43d 5224 3bbe e297 173d ced5 073e
00000020: 2aed 233e e30d c7bc 306d 9dbd 3265 1e3e
00000030: 83ff 333d c4b0 003e 9c9e 0dbd 1df4 9e3c
00000040: 7369 ca3d e163 e9bd f982 c93d 9804 13bd
00000050: a03f 4b3c 1504 103e b052 be3b b1e1 733d
00000060: 9180 ab3d 27e9 373e 5c66 973d 87ae 2bbe
00000070: 048f cbbd 38db 0b3e 8c64 283e a46f 443d
00000080: 3191 05bc 18fc 273e f506 093d 3498 1cbe
00000090: b106 0b3d e737 123e 6cca 1ebe d6ce d8bd
000000a0: c46b 233e 70b5 213e 266d 823c d14e c4bd
000000b0: 3578 203d e0c3 9c3c 3259 813c 8a68 e73c
000000c0: c117 483d 27b0 62bd 54c4 debc 48a9 12bd
000000d0: da3f c33b 5c8a a0bd f2a8 a33d 9cc4 4b3d
000000e0: 5cfb 963d a184 85bb b95c d83d efcd 213e
-0.14010422 0.03579222 0.14332671 0.10358246 0.10360948 -0.18275574 0.03701008 0.13265154
0.1600844 -0.024298614 -0.076868415 0.1546829 0.043944847 0.1256743 -0.03457509 0.019403512
0.09883394 -0.113960035 0.09839434 -0.035893053 0.012405306 0.14064057 0.005808197 0.059541408
0.083741315 0.17960034 0.073925704 -0.16765796 -0.099393874 0.13657844 0.16444606 0.04795803
-0.008152292 0.1640476 0.0334539 -0.15292436 0.03394193 0.14279138 -0.15506905 -0.10586326
0.15959078 0.15791869 0.015921187 -0.095853455 0.03917714 0.01913637 0.015789602 0.02824809
0.04885078 -0.055343773 -0.027193226 -0.03580597 0.0059585394 -0.0783889 0.07991208 0.04974805
0.07372162 -0.0040746485 0.105645604 0.15801214

fc2.bias f4 [2]
00000000: 6efb abbd 113d 053e
-0.08397566 0.13011576
